PRIMs/final_weights/w0.npy (npy, 307328 bytes, 1 tensors)

array (column-major) f4 [2400, 32]
2.590935e-06 2.946825e-06 -3.33689e-06 2.4282128e-06 1.1474037e-06 -1.4465301e-05 6.6482035e-06 -6.732216e-06
-5.8309574e-06 -3.6527526e-06 -5.1378656e-06 7.2913383e-07 -1.3522879e-06 -1.553444e-07 7.642475e-06 1.167583e-05
2.6927778e-06 -6.541e-06 6.354761e-06 -4.917401e-06 4.9478494e-06 7.2149455e-06 -3.5430278e-06 -1.0286411e-05
2.0471873e-06 6.363071e-06 9.641321e-06 -5.764571e-06 -3.441185e-06 4.353702e-06 -8.8187693e-07 5.862531e-06
-4.4814138e-07 4.492373e-06 -7.0597735e-06 2.0793188e-06 2.853728e-06 -3.5851713e-06 -1.4600203e-06 8.005898e-07
2.7237968e-06 1.1776223e-05 5.5578994e-06 -4.8252383e-07 1.3735229e-06 8.0114305e-06 4.0657966e-07 4.394285e-06
-4.3404043e-06 -1.987272e-06 1.06351645e-05 -1.8043769e-06 4.3791997e-06 2.7188908e-06 -7.5983835e-06 -1.0670065e-06
-1.2669587e-06 4.270197e-06 1.6817527e-05 -1.07533315e-05 1.4684823e-06 -8.7814533e-07 2.343636e-06 8.522984e-06
-3.7983164e-06 -6.7552305e-06 5.3713075e-06 2.3298453e-06 3.4165873e-06 1.1037923e-06 1.6650385e-07 -1.2891395e-05
-2.7949096e-07 -1.9976164e-06 1.0529549e-05 6.7209253e-06 -3.7297932e-06 -7.573149e-06 -1.0790981e-06 -6.300614e-06
1.2045311e-05 -8.547323e-06 -2.6100383e-06 3.3809386e-06 -3.061946e-06 -2.9303494e-06 -2.1179867e-05 5.0126737e-06
2.4208146e-06 -4.4495468e-07 3.9667784e-06 1.8597755e-06 -1.5167654e-05 -1.2229125e-06 9.241854e-06 -2.2362103e-06
-6.5517365e-06 -6.78144e-08 3.7520067e-06 -2.2905375e-05 6.784587e-06 -5.9752333e-06 -1.8203622e-06 9.778983e-07
-3.9187e-06 6.3654784e-06 -1.368158e-06 -3.4324916e-07 3.0350318e-06 -1.3706833e-05 -1.7105717e-06 7.2465e-06
6.8208838e-06 5.1328766e-06 8.635821e-06 -4.8368236e-07 -2.5337104e-06 1.3474397e-06 -2.0145842e-07 -9.487031e-06
6.4811175e-06 -3.7528819e-06 -2.1614825e-07 -2.8163192e-06 7.5432827e-06 -2.4284767e-05 -6.9388934e-06 4.736318e-06
-5.1733437e-06 2.569234e-06 6.4429e-07 -5.968208e-07 3.5495523e-06 -4.6139016e-06 -6.77155e-06 -2.0990465e-06
4.4265657e-06 4.271702e-06 2.5099162e-06 1.4516761e-06 -1.12218595e-05 -3.9393663e-06 4.284825e-06 4.5246857e-06
3.5726398e-06 5.927211e-06 2.1233056e-06 6.9608664e-06 -3.576781e-06 -9.92916e-07 1.1482613e-05 -1.1309785e-06
-6.240626e-06 6.892575e-06 9.551402e-06 -7.665684e-07 -2.1992323e-06 -4.129268e-06 -8.867448e-06 -4.809602e-06
1.1713912e-07 1.4840534e-06 1.0607914e-05 3.6648864e-06 -6.80732e-06 -1.2068125e-06 -6.7369265e-06 9.104912e-07
-6.772557e-07 3.6073588e-06 -5.5327514e-06 -3.670909e-06 1.1279371e-06 -5.215753e-07 1.1978787e-05 5.504923e-06
-4.234619e-08 1.0406559e-05 -4.6338e-07 2.2182458e-06 -6.0825214e-06 -3.383257e-06 -6.730103e-06 -2.1803648e-06
1.9482297e-06 -5.6610443e-06 -4.91458e-07 2.442943e-06 3.499472e-06 1.0982901e-06 2.235852e-05 -4.4190397e-06
-6.03754e-06 -1.834244e-06 -1.9129943e-06 3.3161605e-06 3.0123717e-06 9.81032e-07 3.2310845e-06 1.550247e-05
1.3688875e-05 -7.2113465e-07 -7.3483793e-06 -5.7343136e-06 -1.7190433e-06 3.595376e-06 -1.299521e-07 4.674319e-06
-4.506104e-06 2.6676726e-06 -3.4079094e-06 -2.9074304e-06 -8.407771e-06 1.1202963e-05 1.8354725e-06 -3.05148e-06
5.2108834e-07 4.898207e-06 -5.9999735e-07 4.4012336e-06 -1.1023875e-05 -4.9542373e-06 2.3952684e-06 -1.920436e-07
-3.2849503e-06 -7.935992e-06 -7.917559e-07 -5.0398107e-06 -7.640992e-06 1.2327416e-06 -1.4294947e-05 -3.1407733e-06
-1.0502135e-05 -5.5214514e-06 1.391617e-05 1.8222267e-06 -1.15201765e-05 -5.4026928e-06 2.287167e-06 -3.5990147e-06
1.4995227e-06 2.9528126e-06 -2.9999144e-06 7.2392563e-06 -3.2380547e-06 -2.0090895e-06 3.935712e-06 1.4057738e-06
8.51815e-06 3.6028491e-06 -9.970362e-07 5.225874e-06 3.8297617e-06 7.276914e-06 -2.1153112e-06 -1.915152e-06
00000000: eddf 2d36 11c2 4536 55ef 5fb6 61f4 2236
00000010: 7e00 9a35 ffaf 72b7 a213 df36 4ce5 e1b6
00000020: 8ba7 c3b6 d021 75b6 ee65 acb6 b2b9 4335
00000030: 4280 b5b5 becc 26b4 2e38 0037 4fe3 4337
00000040: 92b5 3436 c37a dbb6 fb3a d536 2700 a5b6
00000050: b405 a636 e917 f236 c1c4 6db6 cd93 2cb7
00000060: 6962 0936 5d82 d536 29c1 2137 4a6d c1b6
00000070: 1cef 66b6 0416 9236 1fba 6cb5 c2b6 c436
00000080: 1598 f0b4 31bd 9636 fee2 ecb6 6d8a 0b36
00000090: ac82 3f36 c698 70b6 eaf5 c3b5 1de8 5635
000000a0: 79ca 3636 7e92 4537 fe7d ba36 c986 01b5
000000b0: e359 b835 d568 0637 e247 da34 9f72 9336
000000c0: caa3 91b6 135d 05b6 af6d 3237 eb2d f2b5
000000d0: 0af1 9236 3076 3636 9ef5 feb6 1036 8fb5
000000e0: 5f0c aab5 b748 8f36 5d13 8d37 3569 34b7
000000f0: ab18 c535 b0b9 6bb5 5c47 1d36 f0fd 0e37
00000100: 94e6 7eb6 fdaa e2b6 2e3b b436 705a 1c36
00000110: 8648 6536 0426 9435 3bc8 3234 1f48 58b7
00000120: f20c 96b4 ca0e 06b6 12a8 3037 4f84 e136
00000130: 5c4d 7ab6 db1c feb6 87d5 90b5 dd69 d3b6
00000140: 3816 4a37 7966 0fb7 1e28 2fb6 15e4 6236
00000150: d57b 4db6 05a7 44b6 6bab b1b7 8a32 a836
00000160: 4775 2236 1be2 eeb4 5e1a 8536 669d f935
00000170: 9478 7eb7 f422 a4b5 760d 1b37 cd11 16b6
00000180: fdd6 dbb6 5ca1 91b3 fcca 7b36 eb24 c0b7
00000190: 29a7 e336 dd7e c8b6 2b53 f4b5 5440 8335
000001a0: 607d 83b6 0b97 d536 8da1 b7b5 ce47 b8b4
000001b0: 73ad 4b36 66f6 65b7 cc96 e5b5 f626 f336
000001c0: f2de e436 133b ac36 92e2 1037 66d6 01b5
000001d0: d008 2ab6 add9 b435 7850 58b4 7d2a 1fb7
000001e0: 6078 d936 05da 7bb6 6116 68b4 ffff 3cb6
000001f0: 4e1c fd36 24b7 cbb7 a4d4 e8b6 a9ec 9e36
00000200: af96 adb6 1b6b 2c36 46f3 2c35 3735 20b5
00000210: d834 6e36 1dd1 9ab6 2c37 e3b6 58dd 0cb6
00000220: e987 9436 a455 8f36 0870 2836 36d7 c235
00000230: 8545 3cb7 e62e 84b6 5ec6 8f36 c1d2 9736
00000240: 7cc1 6f36 5be2 c636 1d7e 0e36 6391 e936
00000250: a108 70b6 5544 85b5 73a5 4037 20cc 97b5
00000260: 9266 d1b6 c546 e736 f63e 2037 2ec6 4db5
00000270: 8696 13b6 248e 8ab6 66c5 14b7 2b62 a1b6
00000280: ea8d fb33 b02f c735 a5f8 3137 45f2 7536
00000290: 6f6a e4b6 c3f9 a1b5 c20d e2b6 7b68 7435
000002a0: a8cc 35b5 f415 7236 f9a5 b9b6 bd59 76b6
000002b0: a063 9735 6202 0cb5 80f8 4837 eeb6 b836
000002c0: 21e0 35b3 d597 2e37 76c6 f8b4 2cdd 1436
000002d0: 7618 ccb6 ea0b 63b6 25d3 e1b6 6252 12b6
000002e0: 55be 0236 00f4 bdb6 bdec 03b5 71f1 2336
000002f0: 79d8 6a36 f668 9335 8e8e bb37 4347 94b6
00000300: 1396 cab6 2530 f6b5 fe60 00b6 348b 5e36
00000310: 2728 4a36 01ac 8335 9cd5 5836 4d0b 8237
00000320: 45a9 6537 ff93 41b5 1992 f6b6 6169 c0b6
00000330: e1b9 e6b5 1748 7136 f688 0bb4 18d8 9c36
00000340: 2333 97b6 4406 3336 70b3 64b6 461d 43b6
00000350: 1a0f 0db7 5cf4 3b37 5b5a f635 07c8 4cb6
00000360: ebe0 0b35 475b a436 810f 21b5 4fae 9336
00000370: 2ff3 38b7 933c a6b6 66be 2036 8b34 4eb4
00000380: 0473 5cb6 d324 05b7 0d89 54b5 a51b a9b6
00000390: d031 00b7 ae74 a535 54d4 6fb7 13c6 52b6
000003a0: 5432 30b7 e844 b9b6 7f79 6937 3c93 f435
000003b0: c846 41b7 c748 b5b6 3b7d 1936 9a86 71b6
000003c0: 3543 c935 ef28 4636 2352 49b6 bde8 f236
000003d0: 5b4d 59b6 e5d3 06b6 820f 8436 05ae bc35
000003e0: 2de9 0e37 7ac8 7136 e7d1 85b5 ea59 af36
000003f0: 6781 8036 372c f436 c5f4 0db6 1086 00b6
