PRIMs/final_weights/w1.npy (npy, 307328 bytes, 1 tensors)

array (column-major) f4 [2400, 32]
0	0x343ae1f3	1.74048e-07
1	0x35f76ac0	1.8434002e-06
2	0x36105743	2.1508465e-06
3	0xb6933762	-4.387389e-06
4	0x361ebee2	2.3654943e-06
5	0xb5c5edae	-1.4746818e-06
6	0xb6ddfbe0	-6.6156354e-06
7	0xb4eb0bb1	-4.3780668e-07
8	0xb68c5bc9	-4.1830103e-06
9	0x36a4cf85	4.9117393e-06
10	0xb539558d	-6.9042363e-07
11	0x3505ac93	4.979749e-07
12	0x375471c8	1.2662676e-05
13	0x3696d419	4.49504e-06
14	0xb574c942	-9.118995e-07
15	0x37260009	9.894379e-06
16	0xb7368c62	-1.0880731e-05
17	0x35bc2ed0	1.4020716e-06
18	0x3573dad4	9.084299e-07
19	0x3656f308	3.2029948e-06
20	0xb711ce70	-8.6907385e-06
21	0x3685e005	3.989788e-06
22	0x338e62f8	6.6303926e-08
23	0xb703aaf9	-7.848016e-06
24	0xb6a74564	-4.985066e-06
25	0x3700ec37	7.684393e-06
26	0x3301ba91	3.0204834e-08
27	0x36afa7ce	5.2349415e-06
28	0xb6d77d6f	-6.4221017e-06
29	0x37039e5a	7.845078e-06
30	0x36307794	2.6295647e-06
31	0xb6a658eb	-4.957537e-06
32	0x3654c737	3.170642e-06
33	0xb6065420	-2.0016523e-06
34	0x36a78637	4.9926125e-06
35	0xb74eaed6	-1.2319264e-05
36	0xb339d521	-4.326751e-08
37	0x36868263	4.00869e-06
38	0xb3c61633	-9.2241315e-08
39	0x373dc8c5	1.1312023e-05
40	0x36ede933	7.0902984e-06
41	0x3728b42d	1.0055531e-05
42	0xb61d603b	-2.3450837e-06
43	0xb679634f	-3.7161697e-06
44	0x35e2f21f	1.6908779e-06
45	0x363e53df	2.8361026e-06
46	0x348ef9e1	2.6631372e-07
47	0x36f11942	7.1853e-06
48	0xb79d670e	-1.8763847e-05
49	0xb5e881d4	-1.7323132e-06
50	0xb69da34f	-4.6979762e-06
51	0xb6c84f40	-5.9696904e-06
52	0xb55da9c7	-8.2575974e-07
53	0xb6614d7f	-3.3572721e-06
54	0x371004cd	8.584187e-06
55	0x348a23e0	2.5730606e-07
56	0xb6e2923a	-6.752348e-06
57	0xb6df34bd	-6.6520574e-06
58	0x36c9c749	6.0134666e-06
59	0x362dcccf	2.5898223e-06
60	0x36b22896	5.309538e-06
61	0x36a910a5	5.03853e-06
62	0xb749b07b	-1.2021624e-05
63	0x354c9c64	7.62235e-07
64	0xb5cfeba8	-1.5491287e-06
65	0x3590f6da	1.0800679e-06
66	0xb53616a5	-6.7833236e-07
67	0xb6bba0ac	-5.591739e-06
68	0x35f41862	1.8186513e-06
69	0xb5355a81	-6.7559455e-07
70	0x370e798f	8.492162e-06
71	0x35404ac1	7.1634355e-07
72	0x35cca60f	1.5247514e-06
73	0x3724ce5c	9.8232085e-06
74	0x36ffdbb5	7.6251695e-06
75	0xb6537206	-3.150782e-06
76	0x369a4b92	4.598355e-06
77	0xb20a183f	-8.03817e-09
78	0x3699b796	4.5811275e-06
79	0x368214be	3.8767166e-06
80	0xb6186d49	-2.2713377e-06
81	0x34ea85fc	4.3683383e-07
82	0x33b6c835	8.511453e-08
83	0xb580c93c	-9.59531e-07
84	0xb6b89f0a	-5.502142e-06
85	0x36cc1c8e	6.082998e-06
86	0x376d5982	1.4147141e-05
87	0xb69b6969	-4.6316313e-06
88	0xb619578e	-2.284974e-06
89	0x36acd430	5.1507013e-06
90	0xb5ac1710	-1.2821711e-06
91	0xb59f656a	-1.1875939e-06
92	0xb720e7b3	-9.59069e-06
93	0x3789f90a	1.644764e-05
94	0x36708917	3.5842584e-06
95	0x3311a8ac	3.391385e-08
96	0x35c182f1	1.441773e-06
97	0xb60b5938	-2.0764546e-06
98	0x325771cb	1.2540521e-08
99	0xb69aeee0	-4.6173664e-06
100	0x35014190	4.815165e-07
101	0x35f2dd70	1.8094852e-06
102	0xb75296e9	-1.2552112e-05
103	0x36cb8678	6.0655257e-06
104	0x35dfa4db	1.6662774e-06
105	0x3769dcad	1.3939262e-05
106	0xb3681a81	-5.4040814e-08
107	0xb534fa15	-6.741914e-07
108	0xb6aa50b6	-5.075791e-06
109	0xb5aa0fa5	-1.267054e-06
110	0xb7275d8b	-9.975755e-06
111	0x364f2144	3.0864767e-06
112	0xb725c19b	-9.879844e-06
113	0x366157fb	3.3578824e-06
114	0x36c07760	5.735943e-06
115	0xb64fc2cc	-3.095879e-06
116	0x360fafb3	2.141093e-06
117	0x36fd6fff	7.5530256e-06
118	0x362843fe	2.5073527e-06
119	0xb6015202	-1.9270233e-06
120	0x32797127	1.4519435e-08
121	0x36606512	3.3437432e-06
122	0x33f57cae	1.14313806e-07
123	0x363a53d9	2.7764966e-06
124	0xb6aa0ec6	-5.0681147e-06
125	0xb582f2c6	-9.756411e-07
126	0x34a1fd0d	3.0172706e-07
127	0x33d33323	9.834755e-08
128	0x361eca1a	2.3661473e-06
129	0xb58efccb	-1.0653397e-06
130	0xb6806271	-3.8261574e-06
131	0x372bc846	1.0239024e-05
132	0xb4a514ea	-3.0748862e-07
133	0x364e4484	3.0736273e-06
134	0x36c27f97	5.796504e-06
135	0xb4e48a5e	-4.2568985e-07
136	0xb689c35d	-4.1056614e-06
137	0xb693d647	-4.4058866e-06
138	0x36e438af	6.8015283e-06
139	0x372ae65a	1.01864225e-05
140	0x362452cf	2.4486105e-06
141	0xb487235e	-2.5171443e-07
142	0x37559619	1.2730737e-05
143	0x36f8b8cd	7.4124896e-06
144	0x3744bea2	1.17268955e-05
145	0x36ec538c	7.043074e-06
146	0xb5572ee8	-8.0162e-07
147	0x36e7a599	6.9036146e-06
148	0x35f5d6e0	1.8316459e-06
149	0xb566676e	-8.5832187e-07
150	0xb6b22a5e	-5.3097456e-06
151	0x349a622a	2.875616e-07
152	0x3744af34	1.1723303e-05
153	0xaf82fd6c	-2.382693e-10
154	0xb70d457d	-8.420434e-06
155	0x358b9549	1.0399755e-06
156	0xb74f844e	-1.2368966e-05
157	0xb7164237	-8.956114e-06
158	0xb66efb9f	-3.5611226e-06
159	0xb70b9b9d	-8.321277e-06
160	0x368901f8	4.0831474e-06
161	0x3595504b	1.1124733e-06
162	0x341dd991	1.4700915e-07
163	0x36194f8b	2.2845077e-06
164	0x35c5e3c8	1.4743937e-06
165	0x36907ecc	4.3062955e-06
166	0x3593d43f	1.1014125e-06
167	0xb6b4f97f	-5.393463e-06
168	0xb79756ed	-1.804108e-05
169	0x333d62be	4.4094797e-08
170	0x35eef3ad	1.7803301e-06
171	0x362c1262	2.5640697e-06
172	0x35974650	1.127084e-06
173	0x3641adc9	2.8860397e-06
174	0xb66aa98d	-3.4967409e-06
175	0xb5c6aab0	-1.4801826e-06
176	0x35f18504	1.7994612e-06
177	0x378a8fa2	1.6517766e-05
178	0x36105e77	2.1512658e-06
179	0xb6ad657a	-5.167615e-06
180	0x3717868b	9.031627e-06
181	0x3684ec56	3.9614197e-06
182	0xb73ab5e4	-1.1128814e-05
183	0x374e7523	1.230583e-05
184	0xb5dabf09	-1.6297864e-06
185	0x360c7409	2.0929167e-06
186	0xb6a099f1	-4.7862927e-06
187	0x34ae9e2a	3.2525105e-07
188	0xb7029a57	-7.784539e-06
189	0x37111b40	8.649018e-06
190	0x37982934	1.8138999e-05
191	0x353975e1	6.9089407e-07
192	0xb4650a84	-2.1331113e-07
193	0xb64e267c	-3.0718793e-06
194	0xb5f6a9c9	-1.8377842e-06
195	0x35d1218f	1.558148e-06
196	0xb7b9f749	-2.216887e-05
197	0xb6842ef0	-3.939371e-06
198	0x3710b041	8.624106e-06
199	0xb5911436	-1.0809224e-06
200	0x3645a508	2.9451348e-06
201	0x35a5d956	1.2356711e-06
202	0x367365b3	3.6269018e-06
203	0xb715513b	-8.900005e-06
204	0xb5829b53	-9.73096e-07
205	0x374debb5	1.2273832e-05
206	0x36224628	2.4180717e-06
207	0xb6757b58	-3.657964e-06
208	0x35c44d39	1.4625613e-06
209	0x3668b0d5	3.4673624e-06
210	0x355adefc	8.1535813e-07
211	0xb650e78f	-3.11292e-06
212	0x37419ffd	1.1540947e-05
213	0x36f89d8d	7.4093173e-06
214	0xb6960aef	-4.471621e-06
215	0xb72711ee	-9.95815e-06
216	0x360d4477	2.105049e-06
217	0x3620ea2b	2.3978162e-06
218	0xb582186b	-9.692861e-07
219	0x35acb8eb	1.2868817e-06
220	0x36aeb2b3	5.2064074e-06
221	0x370ee1df	8.516449e-06
222	0xb685b071	-3.9842494e-06
223	0x358e1c25	1.0588016e-06
224	0xb71b4137	-9.253904e-06
225	0xb52619ad	-6.187718e-07
226	0xb77e58ff	-1.5160301e-05
227	0xb537ca72	-6.846741e-07
228	0x36142c64	2.2079557e-06
229	0x360c6c38	2.0924617e-06
230	0x37232a0a	9.725345e-06
231	0x3694af20	4.431131e-06
232	0x351e79cb	5.903682e-07
233	0x372913c2	1.0077785e-05
234	0x3624ceab	2.45582e-06
235	0x3565a82b	8.5553864e-07
236	0x35e80236	1.728599e-06
237	0xb6954efa	-4.44974e-06
238	0x363b36da	2.78971e-06
239	0x33e9d108	1.08879306e-07
240	0x36200df5	2.3849982e-06
241	0x364b9d61	3.0340964e-06
242	0x366e3806	3.5497374e-06
243	0xb6479404	-2.9739467e-06
244	0x36a4af54	4.9079918e-06
245	0x36880600	4.0538143e-06
246	0x359666c0	1.1205775e-06
247	0x36a5e2b4	4.943775e-06
248	0x36220ca6	2.4147243e-06
249	0x35189f76	5.685646e-07
250	0xb69222e8	-4.3552027e-06
251	0xb2cabbe3	-2.3601336e-08
252	0x36480345	2.9804226e-06
253	0x3784d95a	1.5836838e-05
254	0x378db66a	1.6893453e-05
255	0x37114bd0	8.660325e-06
